…
[INFO] Spliting data to train, test
2022-12-09 20:54:11.826506: I tensorflow/core/platform/cpu_feature_guard.cc:193] This TensorFlow binary is optimized with oneAPI Deep Neural Network Library (oneDNN) to use the following CPU instructions in performance-critical operations:  AVX AVX2
To enable them in other operations, rebuild TensorFlow with the appropriate compiler flags.
Model: "sequential"
_________________________________________________________________
 Layer (type)                Output Shape              Param #
=================================================================
 conv2d (Conv2D)             (None, 256, 256, 32)      896

 activation (Activation)     (None, 256, 256, 32)      0

 batch_normalization (BatchN  (None, 256, 256, 32)     128
 ormalization)

 max_pooling2d (MaxPooling2D  (None, 85, 85, 32)       0
 )

 dropout (Dropout)           (None, 85, 85, 32)        0

 conv2d_1 (Conv2D)           (None, 85, 85, 32)        9248

 activation_1 (Activation)   (None, 85, 85, 32)        0

 batch_normalization_1 (Batc  (None, 85, 85, 32)       128
 hNormalization)

 conv2d_2 (Conv2D)           (None, 85, 85, 32)        9248

 activation_2 (Activation)   (None, 85, 85, 32)        0

 batch_normalization_2 (Batc  (None, 85, 85, 32)       128
 hNormalization)

 max_pooling2d_1 (MaxPooling  (None, 42, 42, 32)       0
 2D)

 dropout_1 (Dropout)         (None, 42, 42, 32)        0

 conv2d_3 (Conv2D)           (None, 42, 42, 32)        9248

 activation_3 (Activation)   (None, 42, 42, 32)        0

 batch_normalization_3 (Batc  (None, 42, 42, 32)       128
 hNormalization)

 conv2d_4 (Conv2D)           (None, 42, 42, 32)        9248

 activation_4 (Activation)   (None, 42, 42, 32)        0

 batch_normalization_4 (Batc  (None, 42, 42, 32)       128
 hNormalization)

 max_pooling2d_2 (MaxPooling  (None, 21, 21, 32)       0
 2D)

 dropout_2 (Dropout)         (None, 21, 21, 32)        0

 conv2d_5 (Conv2D)           (None, 21, 21, 32)        9248

 activation_5 (Activation)   (None, 21, 21, 32)        0

 batch_normalization_5 (Batc  (None, 21, 21, 32)       128
 hNormalization)

 conv2d_6 (Conv2D)           (None, 21, 21, 32)        9248

 activation_6 (Activation)   (None, 21, 21, 32)        0

 batch_normalization_6 (Batc  (None, 21, 21, 32)       128
 hNormalization)

 max_pooling2d_3 (MaxPooling  (None, 10, 10, 32)       0
 2D)

 dropout_3 (Dropout)         (None, 10, 10, 32)        0

 flatten (Flatten)           (None, 3200)              0

 dense (Dense)               (None, 512)               1638912

 activation_7 (Activation)   (None, 512)               0

 batch_normalization_7 (Batc  (None, 512)              2048
 hNormalization)

 dropout_4 (Dropout)         (None, 512)               0

 dense_1 (Dense)             (None, 15)                7695

 activation_8 (Activation)   (None, 15)                0

=================================================================
Total params: 1,705,935
Trainable params: 1,704,463
Non-trainable params: 1,472
_________________________________________________________________
[INFO] training network...
Epoch 1/25
WARNING:absl:Found untraced functions such as _jit_compiled_convolution_op, _jit_compiled_convolution_op, _jit_compiled_convolution_op, _jit_compiled_convolution_op, _jit_compiled_convolution_op while saving (showing 5 of 7). These functions will not be directly callable after loading.
…
