…
[INFO] Spliting data to train, test
2022-12-09 21:49:45.490281: I tensorflow/core/platform/cpu_feature_guard.cc:193] This TensorFlow binary is optimized with oneAPI Deep Neural Network Library (oneDNN) to use the following CPU instructions in performance-critical operations:  AVX AVX2
To enable them in other operations, rebuild TensorFlow with the appropriate compiler flags.
Model: "sequential"
_________________________________________________________________
 Layer (type)                Output Shape              Param #
=================================================================
 conv2d (Conv2D)             (None, 256, 256, 32)      896

 activation (Activation)     (None, 256, 256, 32)      0

 batch_normalization (BatchN  (None, 256, 256, 32)     128
 ormalization)

 max_pooling2d (MaxPooling2D  (None, 85, 85, 32)       0
 )

 dropout (Dropout)           (None, 85, 85, 32)        0

 conv2d_1 (Conv2D)           (None, 85, 85, 32)        9248

 activation_1 (Activation)   (None, 85, 85, 32)        0

 batch_normalization_1 (Batc  (None, 85, 85, 32)       128
 hNormalization)

 max_pooling2d_1 (MaxPooling  (None, 42, 42, 32)       0
 2D)

 dropout_1 (Dropout)         (None, 42, 42, 32)        0

 flatten (Flatten)           (None, 56448)             0

 dense (Dense)               (None, 512)               28901888

 activation_2 (Activation)   (None, 512)               0

 batch_normalization_2 (Batc  (None, 512)              2048
 hNormalization)

 dropout_2 (Dropout)         (None, 512)               0

 dense_1 (Dense)             (None, 15)                7695

 activation_3 (Activation)   (None, 15)                0

=================================================================
Total params: 28,922,031
Trainable params: 28,920,879
Non-trainable params: 1,152
_________________________________________________________________
[INFO] training network...
Epoch 1/25
WARNING:absl:Found untraced functions such as _jit_compiled_convolution_op, _jit_compiled_convolution_op while saving (showing 2 of 2). These functions will not be directly callable after loading.
…
