…
[INFO] Spliting data to train, test
2022-12-09 16:08:09.473676: I tensorflow/core/platform/cpu_feature_guard.cc:193] This TensorFlow binary is optimized with oneAPI Deep Neural Network Library (oneDNN) to use the following CPU instructions in performance-critical operations:  AVX AVX2
To enable them in other operations, rebuild TensorFlow with the appropriate compiler flags.
Model: "sequential"
_________________________________________________________________
 Layer (type)                Output Shape              Param #
=================================================================
 conv2d (Conv2D)             (None, 54, 54, 96)        34944

 max_pooling2d (MaxPooling2D  (None, 27, 27, 96)       0
 )

 batch_normalization (BatchN  (None, 27, 27, 96)       384
 ormalization)

 conv2d_1 (Conv2D)           (None, 17, 17, 256)       2973952

 max_pooling2d_1 (MaxPooling  (None, 8, 8, 256)        0
 2D)

 batch_normalization_1 (Batc  (None, 8, 8, 256)        1024
 hNormalization)

 conv2d_2 (Conv2D)           (None, 6, 6, 384)         885120

 batch_normalization_2 (Batc  (None, 6, 6, 384)        1536
 hNormalization)

 conv2d_3 (Conv2D)           (None, 4, 4, 384)         1327488

 batch_normalization_3 (Batc  (None, 4, 4, 384)        1536
 hNormalization)

 conv2d_4 (Conv2D)           (None, 2, 2, 256)         884992

 max_pooling2d_2 (MaxPooling  (None, 1, 1, 256)        0
 2D)

 batch_normalization_4 (Batc  (None, 1, 1, 256)        1024
 hNormalization)

 flatten (Flatten)           (None, 256)               0

 dense (Dense)               (None, 4096)              1052672

 dropout (Dropout)           (None, 4096)              0

 batch_normalization_5 (Batc  (None, 4096)             16384
 hNormalization)

 dense_1 (Dense)             (None, 4096)              16781312

 dropout_1 (Dropout)         (None, 4096)              0

 batch_normalization_6 (Batc  (None, 4096)             16384
 hNormalization)

 dense_2 (Dense)             (None, 1000)              4097000

 dropout_2 (Dropout)         (None, 1000)              0

 batch_normalization_7 (Batc  (None, 1000)             4000
 hNormalization)

 dense_3 (Dense)             (None, 38)                38038

=================================================================
Total params: 28,117,790
Trainable params: 28,096,654
Non-trainable params: 21,136
_________________________________________________________________
Model: "sequential_1"
_________________________________________________________________
 Layer (type)                Output Shape              Param #
=================================================================
 conv2d (Conv2D)             (None, 54, 54, 96)        34944

 max_pooling2d (MaxPooling2D  (None, 27, 27, 96)       0
 )

 batch_normalization (BatchN  (None, 27, 27, 96)       384
 ormalization)

 conv2d_1 (Conv2D)           (None, 17, 17, 256)       2973952

 max_pooling2d_1 (MaxPooling  (None, 8, 8, 256)        0
 2D)

 batch_normalization_1 (Batc  (None, 8, 8, 256)        1024
 hNormalization)

 conv2d_2 (Conv2D)           (None, 6, 6, 384)         885120

 batch_normalization_2 (Batc  (None, 6, 6, 384)        1536
 hNormalization)

 conv2d_3 (Conv2D)           (None, 4, 4, 384)         1327488

 batch_normalization_3 (Batc  (None, 4, 4, 384)        1536
 hNormalization)

 conv2d_4 (Conv2D)           (None, 2, 2, 256)         884992

 max_pooling2d_2 (MaxPooling  (None, 1, 1, 256)        0
 2D)

 batch_normalization_4 (Batc  (None, 1, 1, 256)        1024
 hNormalization)

 flatten (Flatten)           (None, 256)               0

 dense (Dense)               (None, 4096)              1052672

 dropout (Dropout)           (None, 4096)              0

 batch_normalization_5 (Batc  (None, 4096)             16384
 hNormalization)

 dense_1 (Dense)             (None, 4096)              16781312

 dropout_1 (Dropout)         (None, 4096)              0

 batch_normalization_6 (Batc  (None, 4096)             16384
 hNormalization)

 dense_2 (Dense)             (None, 1000)              4097000

 dropout_2 (Dropout)         (None, 1000)              0

 batch_normalization_7 (Batc  (None, 1000)             4000
 hNormalization)

=================================================================
Total params: 28,079,752
Trainable params: 28,058,616
Non-trainable params: 21,136
_________________________________________________________________
Model: "sequential_1"
_________________________________________________________________
 Layer (type)                Output Shape              Param #
=================================================================
 conv2d (Conv2D)             (None, 54, 54, 96)        34944

 max_pooling2d (MaxPooling2D  (None, 27, 27, 96)       0
 )

 batch_normalization (BatchN  (None, 27, 27, 96)       384
 ormalization)

 conv2d_1 (Conv2D)           (None, 17, 17, 256)       2973952

 max_pooling2d_1 (MaxPooling  (None, 8, 8, 256)        0
 2D)

 batch_normalization_1 (Batc  (None, 8, 8, 256)        1024
 hNormalization)

 conv2d_2 (Conv2D)           (None, 6, 6, 384)         885120

 batch_normalization_2 (Batc  (None, 6, 6, 384)        1536
 hNormalization)

 conv2d_3 (Conv2D)           (None, 4, 4, 384)         1327488

 batch_normalization_3 (Batc  (None, 4, 4, 384)        1536
 hNormalization)

 conv2d_4 (Conv2D)           (None, 2, 2, 256)         884992

 max_pooling2d_2 (MaxPooling  (None, 1, 1, 256)        0
 2D)

 batch_normalization_4 (Batc  (None, 1, 1, 256)        1024
 hNormalization)

 flatten (Flatten)           (None, 256)               0

 dense (Dense)               (None, 4096)              1052672

 dropout (Dropout)           (None, 4096)              0

 batch_normalization_5 (Batc  (None, 4096)             16384
 hNormalization)

 dense_1 (Dense)             (None, 4096)              16781312

 dropout_1 (Dropout)         (None, 4096)              0

 batch_normalization_6 (Batc  (None, 4096)             16384
 hNormalization)

 dense_2 (Dense)             (None, 1000)              4097000

 dropout_2 (Dropout)         (None, 1000)              0

 batch_normalization_7 (Batc  (None, 1000)             4000
 hNormalization)

 dense_4 (Dense)             (None, 15)                15015

=================================================================
Total params: 28,094,767
Trainable params: 28,073,631
Non-trainable params: 21,136
_________________________________________________________________
[INFO] training network...
Epoch 1/25
WARNING:absl:Found untraced functions such as _jit_compiled_convolution_op, _jit_compiled_convolution_op, _jit_compiled_convolution_op, _jit_compiled_convolution_op, _jit_compiled_convolution_op while saving (showing 5 of 5). These functions will not be directly callable after loading.
…
